…
heckpoints/vgg16-397923af.pth\n100%|██████████| 528M/528M [00:02<00:00, 215MB/s] \n","output_type":"stream"}],"execution_count":13},{"cell_type":"code","source":"vgg16","metadata":{"trusted":true,"execution":{"iopub.status.busy":"2025-10-28T07:53:20.294230Z","iopub.execute_input":"2025-10-28T07:53:20.295080Z","iopub.status.idle":"2025-10-28T07:53:20.300235Z","shell.execute_reply.started":"2025-10-28T07:53:20.295053Z","shell.execute_reply":"2025-10-28T07:53:20.299509Z"}},"outputs":[{"execution_count":14,"output_type":"execute_result","data":{"text/plain":"VGG(\n  (features): Sequential(\n    (0): Conv2d(3, 64, kernel_size=(3, 3), stride=(1, 1), padding=(1, 1))\n    (1): ReLU(inplace=True)\n    (2): Conv2d(64, 64, kernel_size=(3, 3), stride=(1, 1), padding=(1, 1))\n    (3): ReLU(inplace=True)\n    (4): MaxPool2d(kernel_size=2, stride=2, padding=0, dilation=1, ceil_mode=False)\n    (5): Conv2d(64, 128, kernel_size=(3, 3), stride=(1, 1), padding=(1, 1))\n    (6): ReLU(inplace=True)\n    (7): Conv2d(128, 128, kernel_size=(3, 3), stride=(1, 1), padding=(1, 1))\n    (8): ReLU(inplace=True)\n    (9): MaxPool2d(kernel_size=2, stride=2, padding=0, dilation=1, ceil_mode=False)\n    (10): Conv2d(128, 256, kernel_size=(3, 3), stride=(1, 1), padding=(1, 1))\n    (11): ReLU(inplace=True)\n    (12): Conv2d(256, 256, kernel_size=(3, 3), stride=(1, 1), padding=(1, 1))\n    (13): ReLU(inplace=True)\n    (14): Conv2d(256, 256, kernel_size=(3, 3), stride=(1, 1), padding=(1, 1))\n    (15): ReLU(inplace=True)\n    (16): MaxPool2d(kernel_size=2, stride=2, padding=0, dilation=1, ceil_mode=False)\n    (17): Conv2d(256, 512, kernel_size=(3, 3), stride=(1, 1), padding=(1, 1))\n    (18): ReLU(inplace=True)\n    (19): Conv2d(512, 512, kernel_size=(3, 3), stride=(1, 1), padding=(1, 1))\n    (20): ReLU(inplace=True)\n    (21): Conv2d(512, 512, kernel_size=(3, 3), stride=(1, 1), padding=(1, 1))\n    (22): ReLU(inplace=True)\n    (23): MaxPool2d(kernel_size=2, stride=2, padding=0, dilation=1, ceil_mode=False)\n    (24): Conv2d(512, 512, kernel_size=(3, 3), stride=(1, 1), padding=(1, 1))\n    (25): ReLU(inplace=True)\n    (26): Conv2d(512, 512, kernel_size=(3, 3), stride=(1, 1), padding=(1, 1))\n    (27): ReLU(inplace=True)\n    (28): Conv2d(512, 512, kernel_size=(3, 3), stride=(1, 1), padding=(1, 1))\n    (29): ReLU(inplace=True)\n    (30): MaxPool2d(kernel_size=2, stride=2, padding=0, dilation=1, ceil_mode=False)\n  )\n  (avgpool): AdaptiveAvgPool2d(output_size=(7, 7))\n  (classifier): Sequential(\n    (0): Linear(in_features=25088, out_features=4096, bias=True)\n    (1): ReLU(inplace=True)\n    (2): Dropout(p=0.5, inplace=False)\n    (3): Linear(in_features=4096, out_features=4096, bias=True)\n    (4): ReLU(inplace=True)\n    (5): Dropout(p=0.5, inplace=False)\n    (6): Linear(in_features=4096, out_features=1000, bias=True)\n  )\n)"},"metadata":{}}],"execution_count":14},{"cell_type":"code","source":"vgg16.features","metadata":{"trusted":true,"execution":{"iopub.status.busy":"2025-10-28T07:59:38.045821Z","iopub.execute_input":"2025-10-28T07:59:38.046500Z","iopub.status.idle":"2025-10-28T07:59:38.051442Z","shell.execute_reply.started":"2025-10-28T07:59:38.046474Z","shell.execute_reply":"2025-10-28T07:59:38.050740Z"}},"outputs":[{"execution_count":24,"output_type":"execute_result","data":{"text/plain":"Sequential(\n  (0): Conv2d(3, 64, kernel_size=(3, 3), stride=(1, 1), padding=(1, 1))\n  (1): ReLU(inplace=True)\n  (2): Conv2d(64, 64, kernel_size=(3, 3), stride=(1, 1), padding=(1, 1))\n  (3): ReLU(inplace=True)\n  (4): MaxPool2d(kernel_size=2, stride=2, padding=0, dilation=1, ceil_mode=False)\n  (5): Conv2d(64, 128, kernel_size=(3, 3), stride=(1, 1), padding=(1, 1))\n  (6): ReLU(inplace=True)\n  (7): Conv2d(128, 128, kernel_size=(3, 3), stride=(1, 1), padding=(1, 1))\n  (8): ReLU(inplace=True)\n  (9): MaxPool2d(kernel_size=2, stride=2, padding=0, dilation=1, ceil_mode=False)\n  (10): Conv2d(128, 256, kernel_size=(3, 3), stride=(1, 1), padding=(1, 1))\n  (11): ReLU(inplace=True)\n  (12): Conv2d(256, 256, kernel_size=(3, 3), stride=(1, 1), padding=(1, 1))\n  (13): ReLU(inplace=True)\n  (14): Conv2d(256, 256, kernel_size=(3, 3), stride=(1, 1), padding=(1, 1))\n  (15): ReLU(inplace=True)\n  (16): MaxPool2d(kernel_size=2, stride=2, padding=0, dilation=1, ceil_mode=False)\n  (17): Conv2d(256, 512, kernel_size=(3, 3), stride=(1, 1), padding=(1, 1))\n  (18): ReLU(inplace=True)\n  (19): Conv2d(512, 512, kernel_size=(3, 3), stride=(1, 1), padding=(1, 1))\n  (20): ReLU(inplace=True)\n  (21): Conv2d(512, 512, kernel_size=(3, 3), stride=(1, 1), padding=(1, 1))\n  (22): ReLU(inplace=True)\n  (23): MaxPool2d(kernel_size=2, stride=2, padding=0, dilation=1, ceil_mode=False)\n  (24): Conv2d(512, 512, kernel_size=(3, 3), stride=(1, 1), padding=(1, 1))\n  (25): ReLU(inplace=True)\n  (26): Conv2d(512, 512, kernel_size=(3, 3), stride=(1, 1), padding=(1, 1))\n  (27): ReLU(inplace=True)\n  (28): Conv2d(512, 512, kernel_size=(3, 3), stride=(1, 1), padding=(1, 1))\n  (29): ReLU(inplace=True)\n  (30): MaxPool2d(kernel_size=2, stride=2, padding=0, dilation=1, ceil_mode=False)\n)"},"metadata":{}}],"execution_count":24},{"cell_type":"code","source":"vgg16.classifier","metadata":{"trusted":true,"execution":{"iopub.status.busy":"2025-10-28T07:59:10.081712Z","iopub.execute_input":"2025-10-28T07:59:10.082466Z","iopub.status.idle":"2025-10-28T07:59:10.087247Z","shell.execute_reply.started":"2025-10-28T07:59:10.082423Z","shell.execute_reply":"2025-10-28T07:59:10.086507Z"}},"outputs":[{"execution_count":23,"output_type":"execute_result","data":{"text/plain":"Sequential(\n  (0): Linear(in_features=25088, out_features=1024, bias=True)\n  (1): ReLU()\n  (2): Dropout(p=0.5, inplace=False)\n  (3): Linear(in_features=1024, out_features=512, bias=True)\n  (4): ReLU()\n  (5): Dropout(p=0.5, inplace=False)\n  (6): Linear(in_features=512, out_features=10, bias=True)\n)"},"metadata":{}}],"execution_count":23},{"cell_type":"code","source":"for param in vgg16.features.parameters():\n  param.requires_grad=False","metadata":{"trusted":true,"execution":{"iopub.status.busy":"2025-10-28T07:53:22.513412Z","iopub.execute_input":"2025-10-28T07:53:22.514160Z","iopub.status.idle":"2025-10-28T07:53:22.517833Z","shell.execute_rep
…
.Size([32, 10])\ntorch.Size([32])\nEpoch: 10 , Loss: 0.0011131020387013754\n","output_type":"stream"}],"execution_count":20},{"cell_type":"code","source":"vgg16.eval()","metadata":{"trusted":true,"execution":{"iopub.status.busy":"2025-10-28T07:58:05.421565Z","iopub.execute_input":"2025-10-28T07:58:05.421819Z","iopub.status.idle":"2025-10-28T07:58:05.427344Z","shell.execute_reply.started":"2025-10-28T07:58:05.421804Z","shell.execute_reply":"2025-10-28T07:58:05.426763Z"}},"outputs":[{"execution_count":22,"output_type":"execute_result","data":{"text/plain":"VGG(\n  (features): Sequential(\n    (0): Conv2d(3, 64, kernel_size=(3, 3), stride=(1, 1), padding=(1, 1))\n    (1): ReLU(inplace=True)\n    (2): Conv2d(64, 64, kernel_size=(3, 3), stride=(1, 1), padding=(1, 1))\n    (3): ReLU(inplace=True)\n    (4): MaxPool2d(kernel_size=2, stride=2, padding=0, dilation=1, ceil_mode=False)\n    (5): Conv2d(64, 128, kernel_size=(3, 3), stride=(1, 1), padding=(1, 1))\n    (6): ReLU(inplace=True)\n    (7): Conv2d(128, 128, kernel_size=(3, 3), stride=(1, 1), padding=(1, 1))\n    (8): ReLU(inplace=True)\n    (9): MaxPool2d(kernel_size=2, stride=2, padding=0, dilation=1, ceil_mode=False)\n    (10): Conv2d(128, 256, kernel_size=(3, 3), stride=(1, 1), padding=(1, 1))\n    (11): ReLU(inplace=True)\n    (12): Conv2d(256, 256, kernel_size=(3, 3), stride=(1, 1), padding=(1, 1))\n    (13): ReLU(inplace=True)\n    (14): Conv2d(256, 256, kernel_size=(3, 3), stride=(1, 1), padding=(1, 1))\n    (15): ReLU(inplace=True)\n    (16): MaxPool2d(kernel_size=2, stride=2, padding=0, dilation=1, ceil_mode=False)\n    (17): Conv2d(256, 512, kernel_size=(3, 3), stride=(1, 1), padding=(1, 1))\n    (18): ReLU(inplace=True)\n    (19): Conv2d(512, 512, kernel_size=(3, 3), stride=(1, 1), padding=(1, 1))\n    (20): ReLU(inplace=True)\n    (21): Conv2d(512, 512, kernel_size=(3, 3), stride=(1, 1), padding=(1, 1))\n    (22): ReLU(inplace=True)\n    (23): MaxPool2d(kernel_size=2, stride=2, padding=0, dilation=1, ceil_mode=False)\n    (24): Conv2d(512, 512, kernel_size=(3, 3), stride=(1, 1), padding=(1, 1))\n    (25): ReLU(inplace=True)\n    (26): Conv2d(512, 512, kernel_size=(3, 3), stride=(1, 1), padding=(1, 1))\n    (27): ReLU(inplace=True)\n    (28): Conv2d(512, 512, kernel_size=(3, 3), stride=(1, 1), padding=(1, 1))\n    (29): ReLU(inplace=True)\n    (30): MaxPool2d(kernel_size=2, stride=2, padding=0, dilation=1, ceil_mode=False)\n  )\n  (avgpool): AdaptiveAvgPool2d(output_size=(7, 7))\n  (classifier): Sequential(\n    (0): Linear(in_features=25088, out_features=1024, bias=True)\n    (1): ReLU()\n    (2): Dropout(p=0.5, inplace=False)\n    (3): Linear(in_features=1024, out_features=512, bias=True)\n    (4): ReLU()\n    (5): Dropout(p=0.5, inplace=False)\n    (6): Linear(in_features=512, out_features=10, bias=True)\n  )\n)"},"metadata":{}}],"execution_count":22},{"cell_type":"markdown","source":"## Evaluate","metadata":{}},{"cell_type":"code","source":"# Evaluate training accuracy\nvgg16.eval() \ncorrect = 0\ntotal = 0\n\nwith torch.no_grad():  \n    for batch_features, batch_labels in train_loader:\n        batch_features, batch_labels = batch_features.to(device)
…
